Model_O
Model: "model"
_________________________________________________________________
Layer (type)                 Output Shape              Param #   
=================================================================
input_1 (InputLayer)         [(None, 60)]              0         
_________________________________________________________________
multi_category_encoding (Mul (None, 60)                0         
_________________________________________________________________
normalization (Normalization (None, 60)                121       
_________________________________________________________________
dense (Dense)                (None, 32)                1952      
_________________________________________________________________
re_lu (ReLU)                 (None, 32)                0         
_________________________________________________________________
dropout (Dropout)            (None, 32)                0         
_________________________________________________________________
dense_1 (Dense)              (None, 1024)              33792     
_________________________________________________________________
re_lu_1 (ReLU)               (None, 1024)              0         
_________________________________________________________________
dropout_1 (Dropout)          (None, 1024)              0         
_________________________________________________________________
regression_head_1 (Dense)    (None, 1)                 1025      
=================================================================
Total params: 36,890
Trainable params: 36,769
Non-trainable params: 121
_________________________________________________________________


Model_C
Model: "model"
_________________________________________________________________
Layer (type)                 Output Shape              Param #   
=================================================================
input_1 (InputLayer)         [(None, 60)]              0         
_________________________________________________________________
multi_category_encoding (Mul (None, 60)                0         
_________________________________________________________________
normalization (Normalization (None, 60)                121       
_________________________________________________________________
dense (Dense)                (None, 512)               31232     
_________________________________________________________________
re_lu (ReLU)                 (None, 512)               0         
_________________________________________________________________
dense_1 (Dense)              (None, 128)               65664     
_________________________________________________________________
re_lu_1 (ReLU)               (None, 128)               0         
_________________________________________________________________
regression_head_1 (Dense)    (None, 1)                 129       
=================================================================
Total params: 97,146
Trainable params: 97,025
Non-trainable params: 121
_________________________________________________________________


Model_E
Model: "model"
_________________________________________________________________
Layer (type)                 Output Shape              Param #   
=================================================================
input_1 (InputLayer)         [(None, 60)]              0         
_________________________________________________________________
multi_category_encoding (Mul (None, 60)                0         
_________________________________________________________________
normalization (Normalization (None, 60)                121       
_________________________________________________________________
dense (Dense)                (None, 512)               31232     
_________________________________________________________________
re_lu (ReLU)                 (None, 512)               0         
_________________________________________________________________
dense_1 (Dense)              (None, 256)               131328    
_________________________________________________________________
re_lu_1 (ReLU)               (None, 256)               0         
_________________________________________________________________
dropout (Dropout)            (None, 256)               0         
_________________________________________________________________
regression_head_1 (Dense)    (None, 1)                 257       
=================================================================
Total params: 162,938
Trainable params: 162,817
Non-trainable params: 121
_________________________________________________________________


Model_A
Model: "model"
_________________________________________________________________
Layer (type)                 Output Shape              Param #   
=================================================================
input_1 (InputLayer)         [(None, 60)]              0         
_________________________________________________________________
multi_category_encoding (Mul (None, 60)                0         
_________________________________________________________________
normalization (Normalization (None, 60)                121       
_________________________________________________________________
dense (Dense)                (None, 32)                1952      
_________________________________________________________________
re_lu (ReLU)                 (None, 32)                0         
_________________________________________________________________
dropout (Dropout)            (None, 32)                0         
_________________________________________________________________
dense_1 (Dense)              (None, 32)                1056      
_________________________________________________________________
re_lu_1 (ReLU)               (None, 32)                0         
_________________________________________________________________
dropout_1 (Dropout)          (None, 32)                0         
_________________________________________________________________
regression_head_1 (Dense)    (None, 1)                 33        
=================================================================
Total params: 3,162
Trainable params: 3,041
Non-trainable params: 121
_________________________________________________________________


Model_N
Model: "model"
_________________________________________________________________
Layer (type)                 Output Shape              Param #   
=================================================================
input_1 (InputLayer)         [(None, 60)]              0         
_________________________________________________________________
multi_category_encoding (Mul (None, 60)                0         
_________________________________________________________________
dense (Dense)                (None, 32)                1952      
_________________________________________________________________
re_lu (ReLU)                 (None, 32)                0         
_________________________________________________________________
dense_1 (Dense)              (None, 32)                1056      
_________________________________________________________________
re_lu_1 (ReLU)               (None, 32)                0         
_________________________________________________________________
dense_2 (Dense)              (None, 32)                1056      
_________________________________________________________________
re_lu_2 (ReLU)               (None, 32)                0         
_________________________________________________________________
regression_head_1 (Dense)    (None, 1)                 33        
=================================================================
Total params: 4,097
Trainable params: 4,097
Non-trainable params: 0
_________________________________________________________________


